mlp_model.pth (torch, 21223 bytes, 6 tensors)

fc1.weight f4 [64, 39]
000000 87 7b e5 3d dd 93 99 3e 5e ae c2 3e ab 54 f3 bd
       0.112052016 0.29995623 0.38023657 -0.118813835
000010 e4 e8 6d 3e eb f6 b9 bd 61 b0 36 be c2 12 0b bf
       0.23233372 -0.09080299 -0.1784072 -0.543255
000020 7a a4 97 3d f9 d0 4f be 10 73 b2 be e2 38 13 3e
       0.07404418 -0.2029456 -0.3485341 0.14377168
000030 0c 0f c0 be 4e 32 36 be aa bb 4b be c5 93 b9 be
       -0.3751148 -0.17792627 -0.19895807 -0.36245552
000040 e9 35 d7 bc 52 ed f4 bd 36 39 cc 3c e0 5b a6 bb
       -0.026270824 -0.11959328 0.024929624 -0.0050768703
000050 49 6e 89 3e 23 16 e8 be 57 1d 84 be 01 38 2e 3f
       0.26841953 -0.4532939 -0.25803635 0.68054205
000060 a7 aa 8c 3e 29 6c 18 be 8a 74 41 3e e7 d7 b0 be
       0.27473947 -0.1488501 0.18892112 -0.3453972
000070 1e dd 75 3e 8f 46 a4 3d 7a ed 9b 3e fb da 14 be
       0.24010131 0.080212705 0.30454618 -0.1453666
000080 87 36 d1 be 90 62 41 be 61 d4 8d be e8 e4 e4 3d
       -0.40861914 -0.18885255 -0.27701095 0.11176473
000090 8c 26 0a 3e cc 35 d7 3c f9 81 a2 3d cd 94 9b 3d
       0.13491267 0.02627077 0.079349466 0.07596741
0000a0 89 a4 b6 3d c9 6d 2f 3f d6 31 08 bf 2a 9f 17 bf
       0.08918101 0.68526894 -0.53201044 -0.5922724
0000b0 61 23 f9 be 33 64 2a 3e eb 0c 68 bf 18 aa 16 3e
       -0.48659804 0.16639785 -0.9064471 0.14713323
0000c0 4a da 86 bd 67 a7 65 3e 11 02 66 bd e1 fe 6a be
       -0.06584604 0.2242714 -0.056154314 -0.22948791
0000d0 38 68 87 be 51 d3 9f be 0f 5a 4f bd 67 20 ed bc
       -0.264467 -0.3121591 -0.050622996 -0.028946115
0000e0 51 7e 29 3d 74 e8 2e 3a 31 92 0e 3d 49 33 24 3e
       0.04138023 0.00066722115 0.034807388 0.16035189
0000f0 46 b7 54 be 16 da fc bc 35 9c 00 be d0 35 85 3e
       -0.20773038 -0.03086571 -0.12559588 0.26017618
000100 ec 80 00 bf 17 82 ed bd 52 76 cc be 00 42 6b bd
       -0.5019672 -0.11597078 -0.3993402 -0.05743599
000110 0b a5 15 be 0b cd bc 3d 06 e3 47 bc 79 84 05 bf
       -0.1461374 0.09218796 -0.012200123 -0.5215526
000120 4b 48 b8 be 9f 85 ad bd e3 e6 a4 bd 62 96 56 3e
       -0.35992655 -0.08472752 -0.08051851 0.20955804
000130 e7 3e c3 bd 73 e8 b7 3e 00 1a f3 3c 2a cc 2b be
       -0.09533482 0.35919532 0.029675484 -0.16777101
000140 11 33 16 be 4e 5f 14 3e 25 90 a8 bd dd 15 9f be
       -0.14667918 0.14489481 -0.082306184 -0.31071368
000150 cc 9e b1 3d ee 3a cc be 00 d7 24 bd 47 fd 5d 3e
       0.08672866 -0.3988871 -0.040244102 0.21678649
000160 de aa a8 3e 3f 59 9b bc 47 0a 8d 3e dd 2f 74 3e
       0.3294286 -0.018963454 0.27546903 0.23846383
000170 57 bb b0 3d 59 8b c6 3e 03 82 ce 3c 99 28 0a 3e
       0.08629482 0.3877819 0.025208479 0.1349205
000180 32 7c de 3d 38 bd 12 3e a2 f9 04 be 2f 6c 48 3e
       0.10863532 0.14329994 -0.12985852 0.19572519
000190 e1 13 eb 3d 6e 02 1e bf ef 86 c1 3e 35 a8 70 bb
       0.11478401 -0.6172246 0.3779826 -0.0036721353
0001a0 a7 80 a9 be 8e f9 0e 3f f2 19 94 be 55 c4 bb 3d
       -0.33105966 0.5584954 -0.28926045 0.09168307
0001b0 ae ea 39 be d9 a8 b7 3e 03 2e 11 3e be 00 1f bd
       -0.1815593 0.35871008 0.14177708 -0.038819067
0001c0 92 c5 7a 3e 66 f4 db 3c 6b 4c 14 be 9e 1d 92 bd
       0.2448943 0.026849937 -0.14482276 -0.07134555
0001d0 1f 8c bd 3e 3e 9a c5 bd d8 1f 85 3c 50 96 e4 bd
       0.37020966 -0.0964856 0.016250536 -0.11161482
0001e0 46 df b0 3d d8 8b 1e 3d 7e e3 b1 3d bb 1c 14 be
       0.08636336 0.038707584 0.08685969 -0.14464085
0001f0 0b a1 be bd b5 80 15 be 96 34 09 be a0 b2 53 3d
       -0.0930806 -0.14599879 -0.13398966 0.051684022
000200 5e 7a 11 3e 8c c5 ce 3d 80 9d b8 bc 90 ec ea 3d
       0.14206836 0.10096273 -0.02253604 0.11470902
000210 7e 7b 1d be 52 67 fa bd 0b 63 a1 bd 72 24 a4 3d
       -0.1537914 -0.12226738 -0.07880219 0.08014764
000220 c4 b0 03 3e 50 44 4c 3d 70 f8 18 be 84 12 62 bd
       0.128604 0.049869835 -0.14938521 -0.05519344
000230 ee 52 14 3e f3 6c 0e be 50 9e 95 3d c4 3f d6 bd
       0.1448476 -0.13908748 0.07305586 -0.10461381
000240 48 5a c6 3c a0 bf 44 3d 28 b0 de 3d 68 70 e7 bd
       0.024212971 0.04803431 0.10873443 -0.11300737
000250 ec 40 0a 3e 7a db 04 3e 24 e8 ad 3d 1c 39 d0 3d
       0.13501328 0.12974349 0.08491543 0.10167143
000260 c8 cd f9 3d 00 2e cf bb 36 12 1c be 48 82 1b 3d
       0.12197453 -0.0063226223 -0.15241322 0.037966043
000270 8e 32 82 bd 6a 47 96 3d d8 fe f0 bc dc 6f 8c 3d
       -0.06357299 0.0733784 -0.029418394 0.06857273
000280 e2 e0 04 be 6d 2b da bd 94 f5 c7 3d b8 70 9a bc
       -0.12976411 -0.10652814 0.09763637 -0.018852577
000290 50 91 ff 3d 30 e3 9e bc 18 36 c7 bc 3b 59 16 be
       0.12478888 -0.01939544 -0.024317786 -0.14682476
0002a0 98 55 85 bc 98 94 a6 3d f0 b5 04 be 14 d3 a2 3d
       -0.016276166 0.08133811 -0.12960029 0.07950416
0002b0 96 ae c6 bd 2c d7 35 3d 90 18 05 be 9c 1c c1 3d
       -0.097012684 0.044394657 -0.12997651 0.09429285
0002c0 24 58 13 be d4 2b 50 bd aa eb 14 be 0c 6b f2 3d
       -0.14389092 -0.050823048 -0.14543024 0.11836824
0002d0 1a fc b3 bd 9c 0e 0e bd aa d1 05 3e 63 ba 23 be
       -0.08788319 -0.0346819 0.13068262 -0.1598907
0002e0 00 98 2a 3c 1f c0 0c be 89 32 a1 bd 20 e2 2a 3d
       0.010412216 -0.13745163 -0.07870967 0.041719556
0002f0 0e 77 d1 bd e5 39 fc bd cb 19 08 be 3c 7f 8a bd
       -0.10227786 -0.1231573 -0.13291089 -0.06762549
000300 1a bd 8e bd 3c 31 8d 3d 08 e3 29 3d f8 30 96 bd
       -0.06969662 0.06894156 0.04147628 -0.07333559
000310 bc 49 0a 3e 80 16 32 3c b0 78 56 bc ce 34 01 3e
       0.1350469 0.010869622 -0.013090298 0.126178
000320 7c b2 eb 3d 4e 38 13 be fc a7 58 3d d0 a5 10 be
       0.115086526 -0.14376947 0.052894577 -0.14125752
000330 40 62 d8 bd ec b1 0c bd c8 e3 e5 bc 92 cb 23 3e
       -0.10565615 -0.034349367 -0.028062716 0.15995625
000340 75 9d 06 be f6 8d 9e 3d d4 71 f2 bd 50 09 40 bc
       -0.13146003 0.07741921 -0.11838117 -0.01172097
000350 80 79 1c bd 94 6a 21 3e a5 87 a1 bd 94 dc c3 3d
       -0.03820181 0.15763313 -0.078872 0.09563556
000360 80 b4 c7 bc 44 2e f3 3d 31 52 93 bd 60 cb 68 3d
       -0.024378061 0.11874059 -0.07193411 0.05683458
000370 3a 29 1c 3e c8 ac e2 bd cc 58 05 3d 88 01 af bc
       0.15250102 -0.11068112 0.032555386 -0.021363035
000380 90 98 18 bc 70 75 09 be b8 7a 0a 3e 98 3c fa 3c
       -0.0093137175 -0.13423705 0.13523376 0.030546471
000390 f4 1c 2f 3d 12 2a ee bd 18 b9 d0 bd 77 ce 85 bd
       0.04275222 -0.11629118 -0.10191554 -0.06533521
0003a0 2a f1 05 3e 00 2c bb b9 59 a8 4e 3d e2 f9 c7 be
       0.13080278 -0.00035700202 0.050453518 -0.39057833
0003b0 28 27 14 bf f0 bd 15 be 9b d4 0d be 09 e4 8f 3d
       -0.5787225 -0.14623237 -0.13850634 0.07025916
0003c0 9b 95 e8 be 11 4e 93 3e 1a 79 ec bd 3c f9 34 3d
       -0.4542664 0.28770497 -0.11546536 0.044183
0003d0 f9 bf 5b bc 80 a8 16 3e dc 74 95 3e 99 70 27 be
       -0.013412469 0.14712715 0.2919072 -0.16351546
0003e0 f1 9f 97 3e f0 81 17 3f a4 f7 e2 bb 46 cf 93 3d
       0.29614213 0.59182644 -0.0069264937 0.07217269
0003f0 0e 1c 27 3e 30 f8 90 3d 82 81 6c be 65 30 3c 3e
       0.16319296 0.07078588 -0.23096278 0.18377836

fc1.bias f4 [64]
000000 c6 d9 00 3e 35 ee 2b 3e 67 60 df 3d 20 d5 8f 3d
       0.12583074 0.16790088 0.10907059 0.07023072
000010 de 25 a7 3d 40 89 80 3b 83 ba 2d 3d cf 5d 8f 3e
       0.081615195 0.0039226115 0.0424142 0.28001258
000020 ff 42 18 bd bc 89 f5 bd 28 14 09 3e 66 df 06 3e
       -0.037173267 -0.11989161 0.13386595 0.13171157
000030 c6 3d 0c be 49 c2 17 bd 5b 04 0b be 5c 2e e9 bd
       -0.1369544 -0.03705052 -0.1357588 -0.113857955
000040 ae 28 1a 3e 66 1a 36 3c 68 15 17 3d 70 48 a8 3c
       0.1505458 0.011114692 0.03688565 0.020542353
000050 d6 07 9a bd e4 cd 8f 3c f0 8f 01 be ae 2f 1e 3e
       -0.07521026 0.017554231 -0.12652564 0.15447876
000060 85 91 ee 3d ea 6e f9 bd f7 1a 22 be 68 62 93 3d
       0.116488494 -0.12179358 -0.15830599 0.07196504
000070 d0 10 56 bc a2 8e 20 bd 1a 8f 43 3d 3b 6e 29 be
       -0.013065532 -0.039198525 0.047743894 -0.16545956
000080 31 27 b3 3c 4c eb 53 3d 04 08 f7 3d 8c c5 0e be
       0.021869274 0.05173807 0.12062076 -0.13942546
000090 c3 36 09 3d 58 0d 1c 3e 84 dd 0c 3e 3a d4 2c bd
       0.03349949 0.15239465 0.13756377 -0.042194583
0000a0 4a 16 2e bd 8c 85 09 be 38 67 69 3d f8 70 15 be
       -0.042501725 -0.1342985 0.056983203 -0.14593875
0000b0 35 30 44 be 02 9a ef 3c 3e 50 cc 3c fd 63 46 bd
       -0.19159015 0.029248241 0.024940606 -0.0484352
0000c0 3a 29 bc 3c e8 19 16 3e ed 0b 45 bd 76 45 51 3d
       0.022968877 0.1465832 -0.048107076 0.051091634
0000d0 7e 1e e5 3b 61 78 fb bd 28 7a 62 bd a6 38 99 3d
       0.0069921603 -0.1227882 -0.05529228 0.07481508
0000e0 6b 35 2c 3e 0e 36 6d 3c 3b 75 37 3d 5c 5e b3 3d
       0.16817252 0.01447822 0.044789534 0.08758232
0000f0 ca 84 f7 3c 6b 0f 53 3d 83 77 e4 3d e6 8a 00 be
       0.030214686 0.051528376 0.111556076 -0.12552986

fc2.weight f4 [32, 64]
000000 fc ed 9c 3d 30 02 e7 bc 00 bb 44 3b a0 a0 b2 3b
       0.076625794 -0.028199285 0.0030018687 0.005451277
000010 d8 c2 01 bd 00 d5 0f 3c f4 c6 12 3d 3e f7 99 bd
       -0.031679958 0.0087788105 0.035834268 -0.07517861
000020 86 55 cc bd e4 1d 1c bd 32 36 e0 bd 38 b8 19 bd
       -0.0997725 -0.038114443 -0.10947837 -0.0375292
000030 58 63 fd 3c 6c b3 5a bd a8 14 97 bd 3c b4 9d 3d
       0.03093116 -0.053393766 -0.07376987 0.077003926
000040 88 36 4a 3d a8 82 ed 3d 60 64 a3 bb fc 94 d1 bd
       0.04936841 0.11597186 -0.004986331 -0.10233495
000050 6c 87 58 3d a4 53 43 3d 30 3d 66 3d 20 d4 a4 3b
       0.052863523 0.047687188 0.056210697 0.00503017
000060 94 41 c0 bd 96 bb ab bd 8a 00 97 3d 00 ea 23 ba
       -0.09387508 -0.083853886 0.0737315 -0.0006252825
000070 80 62 d7 3b 1c ad 67 bd 40 e2 14 bd 00 6b 4f 3b
       0.0065730214 -0.056561574 -0.03634858 0.003164947
000080 0e b6 96 bd 58 ae 96 bd 3c 34 af bd 40 9a b1 bc
       -0.07358943 -0.07357472 -0.08554885 -0.021679997
000090 98 82 ab bd c4 42 49 bd e2 1c 8c 3d e4 80 f1 3d
       -0.08374518 -0.04913594 0.068414465 0.11792162
0000a0 38 e5 46 bd c8 ed 91 bd 18 cc ee 3c 66 cd 82 bd
       -0.048558444 -0.07125431 0.029150054 -0.06386833
0000b0 20 d2 95 bd 1e a5 c5 3d 6c 3d fd bd b0 16 b0 bc
       -0.07315469 0.09650634 -0.12365231 -0.021495193
0000c0 a0 80 88 3c 74 6d 52 bd 0a 7a a0 3d fc 60 2f bd
       0.016662896 -0.051373914 0.07835777 -0.0428171
0000d0 74 d0 4f bd c2 b8 da bd c8 0b f4 3d f0 74 47 bc
       -0.050735906 -0.10679771 0.119163096 -0.012173876
0000e0 e0 a7 fe 3b c0 51 fa 3c a2 ef a9 3d cc b5 e1 3d
       0.007771477 0.03055656 0.082976595 0.11021003
0000f0 64 a8 5d 3d 04 13 95 3d 34 ee 80 3d f8 68 9b bd
       0.054115668 0.072790176 0.06295434 -0.075883806
000100 b0 f8 3d be 91 55 ef be 23 e9 68 3e ca 92 b3 bd
       -0.18551898 -0.4674497 0.22745185 -0.08768232
000110 c0 c3 9e 3c ac cb e5 3d 7b 8d f0 3e d0 42 e1 3e
       0.01938045 0.11220488 0.4698294 0.43996286
000120 b9 42 fe bd 14 0c 04 bd e4 6c 22 3f 28 d6 ad bc
       -0.1241507 -0.03223808 0.63447404 -0.021220282
000130 a0 f3 85 3c af a5 f6 3d df 92 0e 3f 66 a0 e6 3d
       0.016351521 0.120433204 0.5569286 0.11261062
000140 da fd ee 3d e0 71 89 3d 36 3d 80 3d e8 35 51 be
       0.11669512 0.06711173 0.06261675 -0.2043072
000150 ba 43 a1 be 90 09 50 3b c4 53 e0 3d 2c b0 4d bd
       -0.31496984 0.003174398 0.10953477 -0.05021684
000160 30 30 6d 3e a4 27 59 bd 34 57 38 bd 1d 28 ca 3d
       0.23162913 -0.05301632 -0.04500504 0.09870932
000170 3c da 97 bd 9e 62 df bd b8 71 bd 3e 14 e6 42 be
       -0.07414672 -0.109074816 0.37000823 -0.1903308
000180 26 59 f3 bd 60 d3 c3 bb 58 4c d5 bd 40 91 33 3b
       -0.11882238 -0.0059761256 -0.10414952 0.0027399808
000190 24 e7 d5 bd 14 ee 98 bd 90 ef 42 bd 22 fe f3 3d
       -0.10444477 -0.07467285 -0.047591746 0.11913706
0001a0 c0 b4 cc bb ee c2 86 bd 20 40 d1 bd a5 e3 7b bc
       -0.006247133 -0.06580149 -0.10217309 -0.015374099
0001b0 00 84 76 bc 7d 67 f9 3d d6 44 b0 3d 50 83 bf 3c
       -0.01504612 0.12177942 0.086068794 0.023378044
0001c0 47 e9 a4 3b 4e b9 ee bd a8 b5 ab bc b5 c7 a7 3d
       0.0050326916 -0.11656438 -0.020960644 0.08192388
0001d0 48 87 c4 bd 9d d4 99 3e 8c f6 c4 3d 6c d6 f1 3d
       -0.09596115 0.30045024 0.096173376 0.11808476
0001e0 d4 73 59 3e 30 5c 9a bd 00 55 65 ba d8 99 60 3d
       0.21235591 -0.075371146 -0.0008748323 0.054834217
0001f0 47 25 4e 3e 48 27 bf bc 2d c0 f0 3e 6a 3d d1 3d
       0.20131408 -0.02333416 0.47021618 0.10216792
000200 9e 82 94 bb 8e 47 02 3c 5a e4 f5 bc d8 ae c1 bc
       -0.0045321723 0.00795163 -0.030016113 -0.023642942
000210 12 87 95 3d a0 c7 2e 3c 00 9c 37 bd 8a 00 06 be
       0.07301153 0.0106677115 -0.044826508 -0.13086143
000220 2a c7 e9 bd 08 f7 82 bd 9c c2 f6 bd 54 cc 3e bd
       -0.11414941 -0.06394774 -0.120488375 -0.04658158
000230 c8 9b 3d 3d 08 29 3d bd 78 75 95 3c 48 72 51 3d
       0.046291143 -0.04618171 0.01824449 0.051134378
000240 1c 31 54 3d c3 87 16 3d b4 16 8d 3d 01 35 d0 3b
       0.051804647 0.036750566 0.06889096 0.006353975
000250 08 5c 14 be ae d1 0e be 00 91 97 3c a8 7c 79 bd
       -0.14488232 -0.13947174 0.018501759 -0.060909897
000260 96 34 35 3c 48 36 42 3d 2c 76 d3 3d 72 da c1 bd
       0.011059901 0.047415048 0.10325274 -0.09465493
000270 0c 31 7f 3d 00 79 b7 3a 92 79 c7 bd ce 30 53 be
       0.062302634 0.0013997853 -0.097399846 -0.20624086
000280 57 09 03 39 78 5c 5a bd 68 4a f4 bc 14 51 ef 3c
       0.00012496613 -0.05331084 -0.029820636 0.029213466
000290 70 4f 5f 3a a6 ac d8 bd a0 84 c3 3d d2 2c f3 3d
       0.0008518612 -0.10579805 0.095467806 0.11873783
0002a0 7a 54 f8 3d 2d 5f 84 bc 96 10 9a bd da ab f9 bd
       0.121254876 -0.016158665 -0.07522695 -0.12190981
0002b0 79 e4 33 bd 17 ea ae 3b 89 2e 59 bc 04 8f 02 bb
       -0.04391906 0.0053379643 -0.013255724 -0.001992167
0002c0 fa d4 f3 bc 00 52 14 3c ee c1 73 bd 76 b3 56 bd
       -0.029764641 0.009052753 -0.059511118 -0.05241724
0002d0 8b 35 2e 3d 09 25 f0 bd c4 a8 3a bd 0b a2 9e 39
       0.04253153 -0.11725814 -0.045571104 0.0003025684
0002e0 d1 25 53 be 84 55 1c be 83 32 ac bd a0 81 c0 bb
       -0.20619895 -0.15266997 -0.08408072 -0.0058748275
0002f0 24 4a 32 3a f4 42 ec bd 8c 86 8a 3d a0 e7 a8 bd
       0.0006801209 -0.11536208 0.06763944 -0.08247304
000300 aa 7c 9a 3d c0 de 63 3b c6 6d a1 3d 42 62 a3 bd
       0.07543309 0.003477022 0.07882266 -0.079777256
000310 40 79 be 3c 80 34 7d bb 28 c8 4f bd 20 0a cb bc
       0.023251176 -0.0038636029 -0.050727993 -0.024785101
000320 80 a5 82 3c 80 d4 87 3d 94 bc 4b 3d 28 67 ca 3c
       0.015948057 0.06632328 0.04974039 0.024707392
000330 bc 59 b7 3d 36 fb 80 bd c8 61 bd 3d c6 9e ea bd
       0.08952662 -0.06297915 0.09247166 -0.11456065
000340 9c ab f3 3d b2 4a c4 3d c8 ea d3 3c 48 4a 7b 3d
       0.11897966 0.095845595 0.025868788 0.061350137
000350 5e e8 b5 bd 6c 6b cf bd 80 b3 6f bc 00 94 7c 3a
       -0.08882211 -0.10127911 -0.0146301985 0.0009635091
000360 90 e1 95 bc 10 13 13 3d 40 de 40 bc 0a 8c cc bd
       -0.018296033 0.03590685 -0.0117717385 -0.09987648
000370 dc 90 1a bd 30 e3 c6 3c ca 94 b6 bd c8 7d 03 bd
       -0.037735805 0.024278253 -0.08915098 -0.032102376
000380 6c f2 08 bd 98 19 32 bd c4 47 03 bd 2c 8f ed bd
       -0.033434317 -0.04348144 -0.032050863 -0.115995735
000390 a0 60 69 3c a0 2d b4 bd 14 bc a1 3d a0 95 92 bb
       0.014244229 -0.08797765 0.07897201 -0.004473403
0003a0 a0 be c6 3b e0 41 ed bd d4 4d eb bd 4c 4a 9c bd
       0.0060652047 -0.1158483 -0.11489454 -0.076313585
0003b0 20 3f 12 bc 1e 36 d4 bd 14 e5 5d bd 84 7c aa bd
       -0.008926183 -0.103618845 -0.054173544 -0.08324531
0003c0 c4 23 5d 3d 74 6d df 3d 98 71 c2 3c 80 15 35 3b
       0.053989187 0.109095484 0.023735806 0.0027631223
0003d0 90 04 d3 3d 14 4b 98 3d 94 ae 62 bd 1c 75 9d 3d
       0.103036046 0.07436195 -0.055342272 0.076883525
0003e0 66 3f 98 3d 66 60 87 3d 1c 0d a2 3d 92 bb f4 bd
       0.07433967 0.066101834 0.07912657 -0.11949839
0003f0 f4 1e b7 3d 80 bd 81 3b f0 fe f9 3c 1e 02 aa bd
       0.08941451 0.0039593577 0.030517071 -0.08301185

fc2.bias f4 [32]
000000 ac 95 59 3d 51 47 20 3e ee 48 87 bc 38 8e af bc
       0.053121254 0.15652205 -0.016514268 -0.02143012
000010 f5 92 7d 3d 60 e1 04 3e 00 46 e2 3d f7 94 01 3e
       0.061907727 0.12976599 0.11048508 0.12654482
000020 47 a3 1e be 8d ee 17 be 6b 27 74 bd 24 09 f3 bb
       -0.15491973 -0.14837094 -0.059607904 -0.007416861
000030 3f 42 9e 3c 4e e8 b9 3d 80 ab 00 3d 89 d4 27 be
       0.019318698 0.09077512 0.031413555 -0.1638967
000040 53 37 0d 3e a7 43 45 bd e9 8d 04 3d 9e 3d e2 3d
       0.13790636 -0.04816022 0.0323619 0.11046909
000050 3a 26 63 bd fd e9 00 be 66 ec bf bd 87 e1 26 3d
       -0.055456378 -0.1258926 -0.09371261 0.040742423
000060 e0 0a 64 3d c7 44 08 3d 52 6b 3f bd bd 67 84 3a
       0.055674434 0.033268716 -0.046733208 0.0010101717
000070 8e 71 68 3d 34 47 fd bd 6a b3 a6 bd 75 e9 bf bd
       0.05674892 -0.123670965 -0.08139689 -0.093707

fc3.weight f4 [4, 32]
000000 1c a6 95 3d 5c e5 ae 3e bc df 38 b8 da 36 f6 3d
       0.073070735 0.34159362 -4.4077387e-05 0.12022181
000010 3d 6b 10 3e b2 4e 23 bf 21 cb 30 3e 48 de 2b be
       0.14103408 -0.63791955 0.17264988 -0.16784012
000020 cd 14 53 be a0 b2 ce bd b2 97 0c 3a 8f 4e a5 3d
       -0.20613404 -0.10092664 0.00053631805 0.080716245
000030 b8 5b 89 bd ec 64 78 3d f2 5f e4 3d f8 77 8e 3d
       -0.06706947 0.06064312 0.111511126 0.06956476
000040 1d 7b 20 be c0 f0 4c be 72 37 b8 bc 62 bc e1 be
       -0.15671964 -0.20013714 -0.022487376 -0.44089037
000050 05 75 e2 3d 3e e2 b8 bb 10 91 8f 3c eb d0 b4 bd
       0.11057476 -0.0056422045 0.017525226 -0.088289104
000060 65 b3 2c 3e d6 c1 df bd 49 5b 9f bd cc ca 6b bd
       0.16865309 -0.10925643 -0.07781083 -0.05756645
000070 5a ed 35 3e c8 05 77 3d 5d 60 bc bd 2e 10 29 3e
       0.17766324 0.060308248 -0.09198067 0.16510078
000080 13 e6 17 3e 3e c3 17 bf 50 f4 fe 3d 1c d1 23 bd
       0.1483386 -0.5928229 0.12448943 -0.039994344
000090 cb 44 f8 bd b3 5d 03 3e ee dc 80 3d cd 71 29 be
       -0.12122496 0.12828712 0.06292139 -0.16547318
0000a0 2a e0 77 bd 0a e5 26 3d 87 54 9f bd 32 30 b6 bb
       -0.060516514 0.040745772 -0.07779794 -0.0055599445
0000b0 fb fc 6b 3e df ee aa bd 9c 86 0b 3d b2 5c 95 bc
       0.23045723 -0.08346342 0.03406392 -0.018232677
0000c0 10 92 60 3e 39 cf 9a bd 38 69 8f 3e b2 4f f2 be
       0.21930718 -0.07559056 0.28009963 -0.47326428
0000d0 9d dd c9 bd 0d 79 7f bd b5 20 9b 3d 1b c6 85 bd
       -0.098567225 -0.062371302 0.07574598 -0.06531926
0000e0 9a 73 b7 3d 94 bc 45 3e 8a a2 1f bd d4 58 95 3e
       0.08957596 0.19310218 -0.03897337 0.29169333
0000f0 d8 91 83 be da 5d b4 bd e0 b0 5f 3d 90 d7 3c 3e
       -0.25697207 -0.08806963 0.05461204 0.18441606
000100 75 bc d2 bd cd 90 9d bd 49 62 06 3e ba 37 75 bd
       -0.102898516 -0.07693634 0.1312343 -0.059867598
000110 d9 d9 c5 3d d9 19 43 3f 9c af 02 3d fb 11 be 3e
       0.09660692 0.76211315 0.031905755 0.37123093
000120 fb 8f 6d 3d bf 14 b6 bd e8 05 f9 3d 97 f0 9b 3c
       0.05799864 -0.08890676 0.1215933 0.01903562
000130 33 fe 60 be 0a b4 ec 3d ac ca 1f 3d 47 8b a8 bd
       -0.2197197 0.11557777 0.039011642 -0.0822969
000140 c5 23 31 3e e1 05 ba bd c7 d4 cd bd 2e 0d a6 3e
       0.17298801 -0.090831526 -0.1005035 0.3243193
000150 b6 40 ff 3d 4b da 04 be c0 e1 a6 3d d3 89 bf bd
       0.124635145 -0.12973897 0.08148527 -0.0935246
000160 81 36 26 3e 05 2c f3 3d 02 a1 60 bd 6e 1b 4c be
       0.16231729 0.118736304 -0.05484105 -0.19932339
000170 d9 86 9b 3e 10 5c f1 bd 3f 27 1b be 88 35 c9 bd
       0.30376318 -0.11785138 -0.1515169 -0.098246634
000180 7c ff 2a 3d 99 74 a9 3e 9c 13 73 be 58 90 0d bd
       0.041747555 0.3309677 -0.23737949 -0.034561485
000190 c6 da 94 be a6 81 1a bf 9d 05 28 3e 3d bf 34 be
       -0.2907316 -0.6035408 0.16408391 -0.17651077
0001a0 40 34 38 bd cc a6 66 3b e9 f6 07 be f9 c9 49 ba
       -0.044971704 0.0035194634 -0.13277782 -0.0007697638
0001b0 8f 4f bf 3d 86 25 c1 3d dc 6e 57 3d bf a0 42 3d
       0.093413465 0.09430985 0.052595958 0.04751658
0001c0 c7 58 eb bb 52 25 8b bd cf b3 14 bc 99 d8 37 3f
       -0.007182214 -0.06794228 -0.009076073 0.71814877
0001d0 36 5e aa 3d d3 a3 c5 3c 34 02 81 be ab 60 e7 3c
       0.083187506 0.024125969 -0.25196993 0.028244337
0001e0 0e bc 9e bd d6 57 5a 3d d7 3c 4d bd d9 72 04 be
       -0.07750712 0.053306423 -0.05010685 -0.12934436
0001f0 4e b8 6c be a7 69 2a be ff 63 f1 3c 8a b9 d9 bd
       -0.23117182 -0.16641866 0.029466627 -0.10631092

fc3.bias f4 [4]
000000 84 9e 8b bc 04 99 8e bd 12 47 9e bd 88 a5 34 3c
       -0.01704336 -0.06962779 -0.07728399 0.011025794
